…
Input-Token (InputLayer)        [(None, 50)]         0                                            
__________________________________________________________________________________________________
Input-Segment (InputLayer)      [(None, 50)]         0                                            
__________________________________________________________________________________________________
Embedding-Token (TokenEmbedding [(None, 50, 768), (3 23877120    Input-Token[0][0]                
__________________________________________________________________________________________________
Embedding-Segment (Embedding)   (None, 50, 768)      1536        Input-Segment[0][0]              
__________________________________________________________________________________________________
Embedding-Token-Segment (Add)   (None, 50, 768)      0           Embedding-Token[0][0]            
                                                                 Embedding-Segment[0][0]          
__________________________________________________________________________________________________
Embedding-Position (PositionEmb (None, 50, 768)      38400       Embedding-Token-Segment[0][0]    
__________________________________________________________________________________________________
Embedding-Dropout (Dropout)     (None, 50, 768)      0           Embedding-Position[0][0]         
__________________________________________________________________________________________________
Embedding-Norm (LayerNormalizat (None, 50, 768)      1536        Embedding-Dropout[0][0]          
__________________________________________________________________________________________________
Encoder-1-MultiHeadSelfAttentio (None, 50, 768)      2362368     Embedding-Norm[0][0]             
__________________________________________________________________________________________________
Encoder-1-MultiHeadSelfAttentio (None, 50, 768)      0           Encoder-1-MultiHeadSelfAttention[
__________________________________________________________________________________________________
Encoder-1-MultiHeadSelfAttentio (None, 50, 768)      0           Embedding-Norm[0][0]             
                                                                 Encoder-1-MultiHeadSelfAttention-
__________________________________________________________________________________________________
Encoder-1-MultiHeadSelfAttentio (None, 50, 768)      1536        Encoder-1-MultiHeadSelfAttention-
__________________________________________________________________________________________________
Encoder-1-FeedForward (FeedForw (None, 50, 768)      4722432     Encoder-1-MultiHeadSelfAttention-
__________________________________________________________________________________________________
Encoder-1-FeedForward-Dropout ( (None, 50, 768)      0           Encoder-1-FeedForward[0][0]      
__________________________________________________________________________________________________
Encoder-1-FeedForward-Add (Add) (None, 50, 768)      0           Encoder-1-MultiHeadSelfAttention-
                                                                 Encoder-1-FeedForward-Dropout[0][
__________________________________________________________________________________________________
Encoder-1-FeedForward-Norm (Lay (None, 50, 768)      1536        Encoder-1-FeedForward-Add[0][0]  
__________________________________________________________________________________________________
Encoder-2-MultiHeadSelfAttentio (None, 50, 768)      2362368     Encoder-1-FeedForward-Norm[0][0] 
__________________________________________________________________________________________________
Encoder-2-MultiHeadSelfAttentio (None, 50, 768)      0           Encoder-2-MultiHeadSelfAttention[
__________________________________________________________________________________________________
Encoder-2-MultiHeadSelfAttentio (None, 50, 768)      0           Encoder-1-FeedForward-Norm[0][0] 
                                                                 Encoder-2-MultiHeadSelfAttention-
__________________________________________________________________________________________________
Encoder-2-MultiHeadSelfAttentio (None, 50, 768)      1536        Encoder-2-MultiHeadSelfAttention-
__________________________________________________________________________________________________
Encoder-2-FeedForward (FeedForw (None, 50, 768)      4722432     Encoder-2-MultiHeadSelfAttention-
__________________________________________________________________________________________________
Encoder-2-FeedForward-Dropout ( (None, 50, 768)      0           Encoder-2-FeedForward[0][0]      
__________________________________________________________________________________________________
Encoder-2-FeedForward-Add (Add) (None, 50, 768)      0           Encoder-2-MultiHeadSelfAttention-
                                                                 Encoder-2-FeedForward-Dropout[0][
__________________________________________________________________________________________________
Encoder-2-FeedForward-Norm (Lay (None, 50, 768)      1536        Encoder-2-FeedForward-Add[0][0]  
__________________________________________________________________________________________________
Encoder-3-MultiHeadSelfAttentio (None, 50, 768)      2362368     Encoder-2-FeedForward-Norm[0][0] 
__________________________________________________________________________________________________
Encoder-3-MultiHeadSelfAttentio (None, 50, 768)      0           Encoder-3-MultiHeadSelfAttention[
__________________________________________________________________________________________________
Encoder-3-MultiHeadSelfAttentio (None, 50, 768)      0           Encoder-2-FeedForward-Norm[0][0] 
                                                                 Encoder-3-MultiHeadSelfAttention-
__________________________________________________________________________________________________
Encoder-3-MultiHeadSelfAttentio (None, 50, 768)      1536        Encoder-3-MultiHeadSelfAttention-
__________________________________________________________________________________________________
Encoder-3-FeedForward (FeedForw (None, 50, 768)      4722432     Encoder-3-MultiHeadSelfAttention-
__________________________________________________________________________________________________
Encoder-3-FeedForward-Dropout ( (None, 50, 768)      0           Encoder-3-FeedForward[0][0]      
__________________________________________________________________________________________________
Encoder-3-FeedForward-Add (Add) (None, 50, 768)      0           Encoder-3-MultiHeadSelfAttention-
                                                                 Encoder-3-FeedForward-Dropout[0][
__________________________________________________________________________________________________
Encoder-3-FeedForward-Norm (Lay (None, 50, 768)      1536        Encoder-3-FeedForward-Add[0][0]  
__________________________________________________________________________________________________
Encoder-4-MultiHeadSelfAttentio (None, 50, 768)      2362368     Encoder-3-FeedForward-Norm[0][0] 
__________________________________________________________________________________________________
Encoder-4-MultiHeadSelfAttentio (None, 50, 768)      0           Encoder-4-MultiHeadSelfAttention[
__________________________________________________________________________________________________
Encoder-4-MultiHeadSelfAttentio (None, 50, 768)      0           Encoder-3-FeedForward-Norm[0][0] 
                                                                 Encoder-4-MultiHeadSelfAttention-
__________________________________________________________________________________________________
Encoder-4-MultiHeadSelfAttentio (None, 50, 768)      1536        Encoder-4-MultiHeadSelfAttention-
__________________________________________________________________________________________________
Encoder-4-FeedForward (FeedForw (None, 50, 768)      4722432     Encoder-4-MultiHeadSelfAttention-
__________________________________________________________________________________________________
Encoder-4-FeedForward-Dropout ( (None, 50, 768)      0           Encoder-4-FeedForward[0][0]      
__________________________________________________________________________________________________
Encoder-4-FeedForward-Add (Add) (None, 50, 768)      0           Encoder-4-MultiHeadSelfAttention-
                                                                 Encoder-4-FeedForward-Dropout[0][
__________________________________________________________________________________________________
Encoder-4-FeedForward-Norm (Lay (None, 50, 768)      1536        Encoder-4-FeedForward-Add[0][0]  
__________________________________________________________________________________________________
Encoder-5-MultiHeadSelfAttentio (None, 50, 768)      2362368     Encoder-4-FeedForward-Norm[0][0] 
__________________________________________________________________________________________________
Encoder-5-MultiHeadSelfAttentio (None, 50, 768)      0           Encoder-5-MultiHeadSelfAttention[
__________________________________________________________________________________________________
Encoder-5-MultiHeadSelfAttentio (None, 50, 768)      0           Encoder-4-FeedForward-Norm[0][0] 
                                                                 Encoder-5-MultiHeadSelfAttention-
__________________________________________________________________________________________________
Encoder-5-MultiHeadSelfAttentio (None, 50, 768)      1536        Encoder-5-MultiHeadSelfAttention-
__________________________________________________________________________________________________
Encoder-5-FeedForward (FeedForw (None, 50, 768)      4722432     Encoder-5-MultiHeadSelfAttention-
__________________________________________________________________________________________________
Encoder-5-FeedForward-Dropout ( (None, 50, 768)      0           Encoder-5-FeedForward[0][0]      
__________________________________________________________________________________________________
Encoder-5-FeedForward-Add (Add) (None, 50, 768)      0           Encoder-5-MultiHeadSelfAttention-
                                                                 Encoder-5-FeedForward-Dropout[0][
__________________________________________________________________________________________________
Encoder-5-FeedForward-Norm (Lay (None, 50, 768)      1536        Encoder-5-FeedForward-Add[0][0]  
__________________________________________________________________________________________________
Encoder-6-MultiHeadSelfAttentio (None, 50, 768)      2362368     Encoder-5-FeedForward-Norm[0][0] 
__________________________________________________________________________________________________
Encoder-6-MultiHeadSelfAttentio (None, 50, 768)      0           Encoder-6-MultiHeadSelfAttention[
__________________________________________________________________________________________________
Encoder-6-MultiHeadSelfAttentio (None, 50, 768)      0           Encoder-5-FeedForward-Norm[0][0] 
                                                                 Encoder-6-MultiHeadSelfAttention-
__________________________________________________________________________________________________
Encoder-6-MultiHeadSelfAttentio (None, 50, 768)      1536        Encoder-6-MultiHeadSelfAttention-
__________________________________________________________________________________________________
Encoder-6-FeedForward (FeedForw (None, 50, 768)      4722432     Encoder-6-MultiHeadSelfAttention-
__________________________________________________________________________________________________
Encoder-6-FeedForward-Dropout ( (None, 50, 768)      0           Encoder-6-FeedForward[0][0]      
__________________________________________________________________________________________________
Encoder-6-FeedForward-Add (Add) (None, 50, 768)      0           Encoder-6-MultiHeadSelfAttention-
                                                                 Encoder-6-FeedForward-Dropout[0][
__________________________________________________________________________________________________
Encoder-6-FeedForward-Norm (Lay (None, 50, 768)      1536        Encoder-6-FeedForward-Add[0][0]  
__________________________________________________________________________________________________
Encoder-7-MultiHeadSelfAttentio (None, 50, 768)      2362368     Encoder-6-FeedForward-Norm[0][0] 
__________________________________________________________________________________________________
Encoder-7-MultiHeadSelfAttentio (None, 50, 768)      0           Encoder-7-MultiHeadSelfAttention[
__________________________________________________________________________________________________
Encoder-7-MultiHeadSelfAttentio (None, 50, 768)      0           Encoder-6-FeedForward-Norm[0][0] 
                                                                 Encoder-7-MultiHeadSelfAttention-
__________________________________________________________________________________________________
Encoder-7-MultiHeadSelfAttentio (None, 50, 768)      1536        Encoder-7-MultiHeadSelfAttention-
__________________________________________________________________________________________________
Encoder-7-FeedForward (FeedForw (None, 50, 768)      4722432     Encoder-7-MultiHeadSelfAttention-
__________________________________________________________________________________________________
Encoder-7-FeedForward-Dropout ( (None, 50, 768)      0           Encoder-7-FeedForward[0][0]      
__________________________________________________________________________________________________
Encoder-7-FeedForward-Add (Add) (None, 50, 768)      0           Encoder-7-MultiHeadSelfAttention-
                                                                 Encoder-7-FeedForward-Dropout[0][
__________________________________________________________________________________________________
Encoder-7-FeedForward-Norm (Lay (None, 50, 768)      1536        Encoder-7-FeedForward-Add[0][0]  
__________________________________________________________________________________________________
Encoder-8-MultiHeadSelfAttentio (None, 50, 768)      2362368     Encoder-7-FeedForward-Norm[0][0] 
__________________________________________________________________________________________________
Encoder-8-MultiHeadSelfAttentio (None, 50, 768)      0           Encoder-8-MultiHeadSelfAttention[
__________________________________________________________________________________________________
Encoder-8-MultiHeadSelfAttentio (None, 50, 768)      0           Encoder-7-FeedForward-Norm[0][0] 
                                                                 Encoder-8-MultiHeadSelfAttention-
__________________________________________________________________________________________________
Encoder-8-MultiHeadSelfAttentio (None, 50, 768)      1536        Encoder-8-MultiHeadSelfAttention-
__________________________________________________________________________________________________
Encoder-8-FeedForward (FeedForw (None, 50, 768)      4722432     Encoder-8-MultiHeadSelfAttention-
__________________________________________________________________________________________________
Encoder-8-FeedForward-Dropout ( (None, 50, 768)      0           Encoder-8-FeedForward[0][0]      
__________________________________________________________________________________________________
Encoder-8-FeedForward-Add (Add) (None, 50, 768)      0           Encoder-8-MultiHeadSelfAttention-
                                                                 Encoder-8-FeedForward-Dropout[0][
__________________________________________________________________________________________________
Encoder-8-FeedForward-Norm (Lay (None, 50, 768)      1536        Encoder-8-FeedForward-Add[0][0]  
__________________________________________________________________________________________________
Encoder-9-MultiHeadSelfAttentio (None, 50, 768)      2362368     Encoder-8-FeedForward-Norm[0][0] 
__________________________________________________________________________________________________
Encoder-9-MultiHeadSelfAttentio (None, 50, 768)      0           Encoder-9-MultiHeadSelfAttention[
__________________________________________________________________________________________________
Encoder-9-MultiHeadSelfAttentio (None, 50, 768)      0           Encoder-8-FeedForward-Norm[0][0] 
                                                                 Encoder-9-MultiHeadSelfAttention-
__________________________________________________________________________________________________
Encoder-9-MultiHeadSelfAttentio (None, 50, 768)      1536        Encoder-9-MultiHeadSelfAttention-
__________________________________________________________________________________________________
Encoder-9-FeedForward (FeedForw (None, 50, 768)      4722432     Encoder-9-MultiHeadSelfAttention-
__________________________________________________________________________________________________
Encoder-9-FeedForward-Dropout ( (None, 50, 768)      0           Encoder-9-FeedForward[0][0]      
__________________________________________________________________________________________________
Encoder-9-FeedForward-Add (Add) (None, 50, 768)      0           Encoder-9-MultiHeadSelfAttention-
                                                                 Encoder-9-FeedForward-Dropout[0][
__________________________________________________________________________________________________
Encoder-9-FeedForward-Norm (Lay (None, 50, 768)      1536        Encoder-9-FeedForward-Add[0][0]  
__________________________________________________________________________________________________
Encoder-10-MultiHeadSelfAttenti (None, 50, 768)      2362368     Encoder-9-FeedForward-Norm[0][0] 
__________________________________________________________________________________________________
Encoder-10-MultiHeadSelfAttenti (None, 50, 768)      0           Encoder-10-MultiHeadSelfAttention
__________________________________________________________________________________________________
Encoder-10-MultiHeadSelfAttenti (None, 50, 768)      0           Encoder-9-FeedForward-Norm[0][0] 
                                                                 Encoder-10-MultiHeadSelfAttention
__________________________________________________________________________________________________
Encoder-10-MultiHeadSelfAttenti (None, 50, 768)      1536        Encoder-10-MultiHeadSelfAttention
__________________________________________________________________________________________________
Encoder-10-FeedForward (FeedFor (None, 50, 768)      4722432     Encoder-10-MultiHeadSelfAttention
__________________________________________________________________________________________________
Encoder-10-FeedForward-Dropout  (None, 50, 768)      0           Encoder-10-FeedForward[0][0]     
__________________________________________________________________________________________________
Encoder-10-FeedForward-Add (Add (None, 50, 768)      0           Encoder-10-MultiHeadSelfAttention
                                                                 Encoder-10-FeedForward-Dropout[0]
__________________________________________________________________________________________________
Encoder-10-FeedForward-Norm (La (None, 50, 768)      1536        Encoder-10-FeedForward-Add[0][0] 
__________________________________________________________________________________________________
Encoder-11-MultiHeadSelfAttenti (None, 50, 768)      2362368     Encoder-10-FeedForward-Norm[0][0]
__________________________________________________________________________________________________
Encoder-11-MultiHeadSelfAttenti (None, 50, 768)      0           Encoder-11-MultiHeadSelfAttention
__________________________________________________________________________________________________
Encoder-11-MultiHeadSelfAttenti (None, 50, 768)      0           Encoder-10-FeedForward-Norm[0][0]
                                                                 Encoder-11-MultiHeadSelfAttention
__________________________________________________________________________________________________
Encoder-11-MultiHeadSelfAttenti (None, 50, 768)      1536        Encoder-11-MultiHeadSelfAttention
__________________________________________________________________________________________________
Encoder-11-FeedForward (FeedFor (None, 50, 768)      4722432     Encoder-11-MultiHeadSelfAttention
__________________________________________________________________________________________________
Encoder-11-FeedForward-Dropout  (None, 50, 768)      0           Encoder-11-FeedForward[0][0]     
__________________________________________________________________________________________________
Encoder-11-FeedForward-Add (Add (None, 50, 768)      0           Encoder-11-MultiHeadSelfAttention
                                                                 Encoder-11-FeedForward-Dropout[0]
__________________________________________________________________________________________________
Encoder-11-FeedForward-Norm (La (None, 50, 768)      1536        Encoder-11-FeedForward-Add[0][0] 
__________________________________________________________________________________________________
Encoder-12-MultiHeadSelfAttenti (None, 50, 768)      2362368     Encoder-11-FeedForward-Norm[0][0]
__________________________________________________________________________________________________
Encoder-12-MultiHeadSelfAttenti (None, 50, 768)      0           Encoder-12-MultiHeadSelfAttention
__________________________________________________________________________________________________
Encoder-12-MultiHeadSelfAttenti (None, 50, 768)      0           Encoder-11-FeedForward-Norm[0][0]
                                                                 Encoder-12-MultiHeadSelfAttention
__________________________________________________________________________________________________
Encoder-12-MultiHeadSelfAttenti (None, 50, 768)      1536        Encoder-12-MultiHeadSelfAttention
__________________________________________________________________________________________________
Encoder-12-FeedForward (FeedFor (None, 50, 768)      4722432     Encoder-12-MultiHeadSelfAttention
__________________________________________________________________________________________________
Encoder-12-FeedForward-Dropout  (None, 50, 768)      0           Encoder-12-FeedForward[0][0]     
__________________________________________________________________________________________________
Encoder-12-FeedForward-Add (Add (None, 50, 768)      0           Encoder-12-MultiHeadSelfAttention
                                                                 Encoder-12-FeedForward-Dropout[0]
__________________________________________________________________________________________________
Encoder-12-FeedForward-Norm (La (None, 50, 768)      1536        Encoder-12-FeedForward-Add[0][0] 
__________________________________________________________________________________________________
Encoder-Output (Concatenate)    (None, 50, 3072)     0           Encoder-9-FeedForward-Norm[0][0] 
                                                                 Encoder-10-FeedForward-Norm[0][0]
                                                                 Encoder-11-FeedForward-Norm[0][0]
                                                                 Encoder-12-FeedForward-Norm[0][0]
__________________________________________________________________________________________________
non_masking_layer (NonMaskingLa (None, 50, 3072)     0           Encoder-Output[0][0]             
__________________________________________________________________________________________________
layer_blstm (Bidirectional)     (None, 50, 256)      3277824     non_masking_layer[0][0]          
__________________________________________________________________________________________________
layer_dense (Dense)             (None, 50, 64)       16448       layer_blstm[0][0]                
__________________________________________________________________________________________________
layer_crf_dense (Dense)         (None, 50, 11)       715         layer_dense[0][0]                
__________________________________________________________________________________________________
layer_crf (CRF)                 (None, 50, 11)       121         layer_crf_dense[0][0]            
==================================================================================================
Total params: 112,268,164
Trainable params: 3,295,108
Non-trainable params: 108,973,056
__________________________________________________________________________________________________
Epoch 1/20

 1/15 [=>............................] - ETA: 4:59 - loss: 151.3900 - accuracy: 0.0077
…
